models/ann_model_lp.pt (torch, 47128 bytes, 20 tensors)

fc1.weight f4 [64, 11]
-0.2752447 -0.124421634 -0.1795147 0.10024459 -0.27997053 -0.23557416 0.24368244 0.0325765
0.062362403 0.1957812 0.112029836 0.0020388435 -0.025178293 0.4419515 -0.059064396 -0.3296094
-0.024646591 -0.17595208 -0.1139528 -0.36269766 0.1274955 0.029603526 -0.0393618 0.22808117
0.3317213 -0.39695176 0.08624724 0.28838012 -0.18413994 0.007882752 0.386838 0.00423012
0.13169637 -0.23052178 0.14450414 -0.22311519 -0.042841993 -0.10491206 0.0023529946 0.34189463
-0.19638447 0.056969855 0.111989245 -0.22911069 -0.3841727 0.14951627 -0.063135706 -0.00932363
-0.09844262 0.029750647 0.2818669 -0.116334714 0.0657462 0.29061005 0.06679803 0.028277459
-0.064457595 -0.049859 0.06179797 0.1584188 0.1367046 0.034393974 -0.09200072 -0.48128453
-0.14139968 0.42071205 0.27138892 -0.283972 -0.30417532 0.33033174 -0.089173995 -0.024331678
0.08919594 -0.06746713 -0.1602665 0.21152945 0.09107464 0.19733602 0.34204513 -0.41862217
0.28581423 -0.38708296 -0.027190475 0.08677042 -0.16947216 0.14493243 -0.018168446 -0.17690547
-0.22664566 0.132796 0.014035656 0.025367167 0.08677615 0.19704284 0.14351623 -0.11768363
-0.1878204 -0.48833245 0.15514646 0.2455614 -0.57971346 0.003994561 0.12650457 0.00026395157
0.06621313 -0.013612768 0.021214752 0.2723992 0.19115001 0.038435295 0.557191 -0.10998736
-0.14362085 0.28852162 0.018908506 -0.05253401 -0.050958153 -0.057544198 0.20958641 -0.093679234
0.14695087 -0.077274874 0.054446746 -0.23533094 -0.30662307 -0.070662156 -0.014783152 0.14648989
0.22729395 0.14978373 0.124308415 -0.5230755 -0.25143564 0.07975953 0.031308822 0.318981
-0.14897302 -0.20611775 -0.2962499 0.07451308 0.3555192 -0.004875261 0.15782864 0.026247848
-0.006083541 -0.011471696 0.38962367 0.0061029023 -0.004155895 -0.0646952 -0.284604 -0.3579774
0.008095066 0.35028768 0.08672748 -0.08893394 -0.21089925 0.21945803 -0.22085425 -0.18778859
0.1967949 -0.064360864 -0.19253819 0.029414186 0.3543572 0.133701 -0.09376661 0.010237405
-0.06922196 0.2168544 0.1443908 -0.10262063 0.14054623 0.20436731 -0.35660845 -0.18605763
-0.11995806 0.015599478 -0.11420622 0.29828674 -0.098950975 -0.053219073 0.18442588 -0.18505159
0.1604172 -0.09350114 -0.3795729 0.23124072 -0.057470817 -0.20067735 -0.23495431 -0.15143728
-0.28938073 0.18572019 -0.3482445 0.08129043 -0.21002388 0.17677969 -0.26211122 0.09577432
-0.11728955 -0.0005129399 0.45459113 -0.1514369 -0.26571193 0.11292621 0.09920586 -0.31899616
0.25655636 -0.24317425 -0.42823872 0.07305474 0.09458876 -0.04874894 -0.31630266 0.19321372
-0.083844766 -0.08459951 -0.22152376 0.1716737 -0.35298333 -0.15013373 0.052355263 -0.14024854
0.23161402 -0.2171341 -0.046009827 -0.058971312 -0.50342554 -0.16161233 0.29332402 -0.34089026
-0.11485275 0.098203704 0.3246331 -0.085596815 -0.44676656 0.15417549 0.0069095828 -0.30805138
-0.05316492 0.1697037 0.031942733 -0.0008120688 0.09658317 0.054414116 -0.4446646 0.034041565
-0.061194003 -0.14244567 0.123318814 0.104805 0.07009715 0.013290377 0.09734439 -0.036802538
00000000: e0ec 8cbe c5d0 febd b4d2 37be 094d cd3d
00000010: 4c58 8fbe 5a3a 71be e487 793e f06e 053d
00000020: b86f 7f3d de7a 483e e66f e53d 1e9e 053b
00000030: b542 cebc 7847 e23e 82ed 71bd 90c2 a8be
00000040: a6e7 c9bc c82c 34be 1660 e9bd 82b3 b9be
00000050: 2e8e 023e 1883 f23c d739 21bd 1c8e 693e
00000060: 60d7 a93e 433d cbbe 65a2 b03d 8fa6 933e
00000070: 2e8f 3cbe a926 013c a10f c63e d29c 8a3b
00000080: 6adb 063e e70d 6cbe e5f8 133e 4f78 64be
00000090: 167b 2fbd 22dc d6bd b334 1a3b d00c af3e
000000a0: 0319 49be 3959 693d 9e5a e53d fe9b 6abe
000000b0: 49b2 c4be cb1a 193e 4b4d 81bd 23c2 18bc
000000c0: 499c c9bd a1b7 f33c dc50 903e e540 eebd
000000d0: f2a5 863d d7ca 943e 68cd 883d 21a6 e73c
000000e0: 5802 84bd f338 4cbd de1f 7d3d 8a38 223e
000000f0: 4afc 0b3e b2e0 0c3d e06a bcbd ed6a f6be
00000100: 14cb 10be 9267 d73e 7df3 8a3e c764 91be
00000110: debc 9bbe 3e21 a93e dba0 b6bd 3a53 c7bc
00000120: 5cac b63d 352c 8abd e71c 24be 2d9b 583e
00000130: 5785 ba3d 7412 4a3e 8a20 af3e a555 d6be
00000140: 3e56 923e bd2f c6be 8fbe debc b1b4 b13d
00000150: 1c8a 2dbe 2b69 143e fed5 94bc b526 35be
00000160: cd15 68be adfb 073e cff5 653c cece cf3c
00000170: b2b7 b13d 99c5 493e ebf5 123e 1d04 f1bd
00000180: fe53 40be b606 fabe b7de 1e3e 7374 7b3e
00000190: 1a68 14bf cee4 823b 6a8a 013e fb62 8a39
000001a0: c09a 873d 1608 5fbc 8fca ad3c e877 8b3e
000001b0: d4bc 433e 546e 1d3d 12a4 0e3f 0e41 e1bd
000001c0: 5811 13be 1bb9 933e 03e6 9a3c e72d 57bd
000001d0: 7fb9 50bd 77b3 6bbd d29d 563e e6da bfbd
000001e0: 4a7a 163e 4a42 9ebd 8d03 5f3d 98fa 70be
000001f0: b3fd 9cbe 52b7 90bd 0935 72bc 7201 163e
00000200: bfbf 683e e860 193e 6995 fe3d 47e8 05bf
00000210: 2cbc 80be f758 a33d ae3d 003d 7a51 a33e
00000220: 628c 18be 8810 53be 11ae 97be 509a 983d
00000230: 9d06 b63e a7c0 9fbb d59d 213e ba05 d73c
00000240: 7158 c7bb c8f3 3bbc c17c c73e dbfa c73b
00000250: 2d2e 88bb eb7e 84bd 9eb7 91be d048 b7be
00000260: 2ba1 043c e858 b33e 2d9e b13d ff22 b6bd
00000270: f9f5 57be 9bb9 603e 9e27 62be a74b 40be
00000280: 9a84 493e a1cf 83bd bb28 45be 05f6 f03c
00000290: 4f6e b53e eae8 083e b508 c0bd caba 273c
000002a0: 3ec4 8dbd 140f 5e3e 2fdb 133e c42a d2bd
000002b0: 5aeb 0f3e aa45 513e 6295 b6be e485 3ebe
000002c0: 92ac f5bd f494 7f3c f3e4 e9bd 0ab9 983e
000002d0: cfa6 cabd 3efc 59bd 23da 3c3e 2a7e 3dbe
000002e0: 6844 243e 877d bfbd 6157 c2be 5eca 6c3e
000002f0: 8566 6bbd 5d7e 4dbe dd97 70be 6012 1bbe
00000300: b629 94be 6f2d 3e3e 1a4d b2be 997b a63d
00000310: 8010 57be bc05 353e 7133 86be 5425 c43d
00000320: 8135 f0bd d076 06ba 2bc0 e83e 4612 1bbe
00000330: 650b 88be db45 e73d 712c cb3d 7753 a3be
00000340: 5b5b 833e ac02 79be 1b42 dbbe b99d 953d
00000350: c0b7 c13d f8ac 47bd 6cf2 a1be d1d9 453e
00000360: ceb6 abbd 8242 adbd 20d7 62be 3bcb 2f3e
00000370: 3bba b4be a8bc 19be 7972 563d 509d 0fbe
00000380: 3a2c 6d3e 6758 5ebe cd74 3cbd e78b 71bd
00000390: 7fe0 00bf b47d 25be 912e 963e 2b89 aebe
000003a0: eb37 ebbd 061f c93d 4f36 a63e 624d afbd
000003b0: 96be e4be 2ee0 1d3e c869 e23b e9b8 9dbe
000003c0: 76c3 59bd cfc6 2d3e 62d6 023d 04e1 54ba
000003d0: 66cd c53d 56e1 5e3d 14ab e3be 2b6f 0b3d
000003e0: 90a6 7abd 47dd 11be 938e fc3d 01a4 d63d
000003f0: 188f 8f3d e2bf 593c 7f5c c73d 42be 16bd

fc1.bias f4 [64]
0.07682805 0.16348246 0.16105789 0.21095015 0.12363568 0.16857994 0.0014186226 -0.07458971
0.114475764 0.2185391 0.24753661 0.11640659 0.14304933 0.06755707 -0.21157607 -0.12312156
-0.08658577 0.07215967 -0.062927626 0.12154223 0.079980254 0.11618512 0.22258784 -0.14926952
0.08718082 0.032872394 0.25099468 0.05462984 -0.09326433 -0.11789022 -0.15665898 -0.2403633
-0.1830374 0.16830653 0.27726746 0.13499475 0.30859932 0.2543989 -0.19765756 0.1942736
0.08959727 -0.0884267 -0.026117962 0.2044559 0.21088775 0.24990423 0.2168605 0.07020124
0.17404532 -0.20520864 0.27875274 0.10123139 0.023066398 -0.10472298 -0.067708716 0.1355661
0.13616264 0.016953386 -0.21130922 0.113102846 0.008573209 0.3618337 -0.05231566 -0.05218919
00000000: 0658 9d3d f267 273e 5cec 243e 5103 583e
00000010: b434 fd3d 38a0 2c3e 13f1 b93a 7dc2 98bd
00000020: 4572 ea3d b7c8 5f3e 3d7a 7d3e 9466 ee3d
00000030: 867b 123e 5c5b 8a3d 66a7 58be 2827 fcbd
00000040: e153 b1bd 73c8 933d 33e0 80bd 22eb f83d
00000050: b0cc a33d 77f2 ed3d 11ee 633e 1cda 18be
00000060: dc8b b23d 34a5 063d 6082 803e 8ac3 5f3d
00000070: 5e01 bfbd 6d70 f1bd 366b 20be cc21 76be
00000080: 286e 3bbe 8c58 2c3e 00f6 8d3e 103c 0a3e
00000090: bb00 9e3e 9340 823e be66 4abe a9ef 463e
000000a0: c67e b73d 0f19 b5bd 56f5 d5bc e35c 513e
000000b0: f5f2 573e e5e6 7f3e ae10 5e3e abc5 8f3d
000000c0: f038 323e 3722 52be aeb8 8e3e 6752 cf3d
000000d0: bef5 bc3c 0079 d6bd deaa 8abd d7d1 0a3e
000000e0: 386e 0b3e d4e1 8a3c 7261 58be 77a2 e73d
000000f0: a576 0c3c 4442 b93e f248 56bd 55c4 55bd

bn1.weight f4 [64]
1.0370045 1.0351305 0.89706516 0.9586486 0.9934167 1.0806315 1.0910506 1.0602942
1.1974458 1.1327381 0.93632084 1.0543195 0.99570876 1.1524283 0.8393671 1.0769506
0.90982276 0.94705886 1.225145 1.0406362 0.8947874 0.8810668 0.9897979 1.1112694
0.94409615 0.91763616 1.0746574 0.8531505 1.047603 0.83364373 0.99796337 0.95163393
1.1530597 0.9895454 0.93575346 0.96063435 1.0289044 1.0065084 0.8678621 0.9095019
0.8905302 0.96820396 1.0143317 1.0070825 0.85409164 1.0669235 0.9189648 1.1129968
0.8018226 0.8934811 0.9604551 0.9740936 0.84513897 0.849641 0.9436307 1.1030585
0.88437647 1.0896262 0.93022865 0.87393147 0.89503974 0.995403 1.0512494 0.8863781
00000000: 90bc 843f 287f 843f 10a6 653f ff69 753f
00000010: 8f50 7e3f 2252 8a3f 8ca7 8b3f b8b7 873f
00000020: e745 993f 90fd 903f b9b2 6f3f f1f3 863f
00000030: c5e6 7e3f c582 933f c3e0 563f 84d9 893f
00000040: 25ea 683f 7372 723f 8dd1 9c3f 9133 853f
00000050: c910 653f 988d 613f 6563 7d3f 133e 8e3f
00000060: 49b0 713f 34ea 6a3f 608e 893f 1268 5a3f
00000070: db17 863f ad69 553f 877a 7f3f 489e 733f
00000080: 7697 933f d952 7d3f 8a8d 6f3f 22ec 753f
00000090: 24b3 833f 44d5 803f 362c 5e3f 1ed5 683f
000000a0: caf9 633f 37dc 773f 9fd5 813f 14e8 803f
000000b0: c0a5 5a3f f390 883f 4741 6b3f ae76 8e3f
000000c0: 3f44 4d3f 2dbb 643f 63e0 753f 335e 793f
000000d0: 075b 583f 1382 593f c891 713f 0531 8d3f
000000e0: 7f66 623f df78 8b3f 7723 6e3f f9b9 5f3f
000000f0: 5321 653f bbd2 7e3f 578f 863f ade9 623f

bn1.bias f4 [64]
-0.1571378 0.07582194 -0.13927755 0.1160846 -0.09408496 0.08728173 -0.04060617 -0.3454253
0.14874381 -0.09935213 0.034494836 0.029438218 -0.010252101 0.039081104 -0.06333225 0.03254615
-0.0040756743 -0.4220253 -0.15780935 -0.12612301 -0.10739755 -0.19914976 -0.104209065 -0.21939954
-0.03645781 0.047536638 0.14235963 -0.59008574 -0.31521562 -0.5543 -0.17301531 0.04100681
-0.34709188 -0.10055403 -0.17094944 -0.5122113 -0.16482688 0.29926553 -0.09093108 0.113820545
-0.7622703 0.28983304 -0.2561185 -0.2187151 -0.108277015 0.0013087379 0.019494034 -0.44970542
-0.17142668 -0.061362796 -0.4134617 0.0072973464 0.28387684 -0.13893989 0.18724175 0.0072206305
-0.620495 -0.28863856 -0.6465769 -0.18235338 -0.17065059 -0.2593134 0.04700964 0.57646126
00000000: bbe8 20be 8948 9b3d c69e 0ebe c3bd ed3d
00000010: 9eaf c0bd c3c0 b23d a852 26bd 96db b0be
00000020: 4c50 183e 2179 cbbd 754a 0d3d 6b28 f13c
00000030: 6ef8 27bc 8213 203d 57b4 81bd 1d4f 053d
00000040: 3c8d 85bb b313 d8be c698 21be 6426 01be
00000050: 3ff3 dbbd eaed 4bbe 906b d5bd 46aa 60be
00000060: c954 15bd c7b5 423d b9c6 113e dc0f 17bf
00000070: f163 a1be 9be6 0dbf ed2a 31be c2f6 273d
00000080: 07b6 b1be 45ef cdbd 5f0d 2fbe 4820 03bf
00000090: 61c8 28be 5539 993e 133a babd bf1a e93d
000000a0: 2524 43bf ff64 943e f721 83be daf6 5fbe
000000b0: 57c0 ddbd f589 ab3a f4b1 9f3c ca3f e6be
000000c0: 7a8a 2fbe 8e57 7bbd 40b1 d3be 941e ef3b
000000d0: 4e58 913e 4246 0ebe 4dbc 3f3e 0a9b ec3b
000000e0: c3d8 1ebf 6fc8 93be 1086 25bf d8ba 3abe
000000f0: 07bf 2ebe bac4 84be 2e8d 403d f792 133f

bn1.running_mean f4 [64]
0.08271445 0.16862416 0.16419189 0.2105974 0.13078463 0.16376473 -0.002460699 -0.07422724
0.11516627 0.21308266 0.24339241 0.11216237 0.1504503 0.06927037 -0.21000482 -0.13033126
-0.087149546 0.071529694 -0.06380986 0.12280538 0.080182016 0.12344269 0.22717154 -0.14349991
0.09322785 0.024104904 0.24042115 0.048305407 -0.089114204 -0.11636959 -0.16033363 -0.24497743
-0.18922576 0.1602981 0.27995893 0.13829874 0.31945622 0.25496823 -0.19663599 0.19251919
0.08922872 -0.08638159 -0.023682497 0.20266256 0.21480076 0.2542192 0.22441089 0.075406566
0.17891473 -0.2091644 0.28829134 0.101693064 0.015984982 -0.099100396 -0.07551777 0.12926392
0.13584231 0.013749125 -0.2073614 0.11296851 0.010732948 0.36192933 -0.044708204 -0.05042027
00000000: 3266 a93d d0ab 2c3e eb21 283e d8a6 573e
00000010: 68ec 053e f1b1 273e ae43 21bb 7404 98bd
00000020: 4bdc eb3d 5732 5a3e dc3b 793e 62b5 e53d
00000030: a50f 1a3e a0dd 8d3d 810b 57be 8f75 05be
00000040: 767b b2bd 297e 923d beae 82bd 6381 fb3d
00000050: 7836 a43d 85cf fc3d a89f 683e a4f1 12be
00000060: 3eee be3d a677 c53c f630 763e e4db 453d
00000070: 8281 b6bd 2e53 eebd 802e 24be 5ddb 7abe
00000080: 66c4 41be 2f25 243e c756 8f3e 2f9e 0d3e
00000090: c48f a33e 328b 823e f25a 49be c023 453e
000000a0: 8cbd b63d d5e8 b0bd cc01 c2bc c686 4f3e
000000b0: bbf4 5b3e 0529 823e f8cb 653e c26e 9a3d
000000c0: 6c35 373e 312f 56be ec9a 933e 7444 d03d
000000d0: f0f2 823c 26f5 cabd 10a9 9abd c35d 043e
000000e0: 3f1a 0b3e 0344 613c 8c56 54be 095c e73d
000000f0: 3fd9 2f3c cd4e b93e f31f 37bd 7c85 4ebd

bn1.running_var f4 [64]
0.3868412 0.5132541 0.6050016 0.35260007 0.36304414 0.49183643 0.45185018 0.6578404
0.45082268 0.53083336 0.51172584 0.53405243 0.47799623 0.47815463 0.40068433 0.3339125
0.37556306 0.5020648 0.5819986 0.4871605 0.64440036 0.58836275 0.2680788 0.47122768
0.33943975 0.39567852 0.57129484 0.5671876 0.4930511 0.21137524 0.49871042 0.56506705
0.37873676 0.56777084 0.5428365 0.30522433 0.60048586 0.46668622 0.33734745 0.5030423
0.44469094 0.4195597 0.31001174 0.3247726 0.51609886 0.44615376 0.474209 0.7101831
0.24147344 0.35010642 0.6086029 0.3725008 0.73013556 0.83663774 0.61983484 0.5326845
0.5203731 0.49312982 0.52721024 0.41121715 0.59434986 0.5576004 0.59412795 0.7709392
00000000: 0d10 c63e 9f64 033f 63e1 1a3f ff87 b43e
00000010: ece0 b93e fcd1 fb3e e858 e73e 3a68 283f
00000020: 3bd2 e63e b2e4 073f 7700 033f a9b7 083f
00000030: ecbb f43e afd0 f43e 7f26 cd3e 94f6 aa3e
00000040: cd49 c03e 5287 003f dcfd 143f 1a6d f93e
00000050: 6cf7 243f f19e 163f a041 893e c144 f13e
00000060: 0ccb ad3e 6096 ca3e 6140 123f 3533 113f
00000070: 3271 fc3e c072 583e f956 ff3e 3ca8 103f
00000080: c9e9 c13e 6e59 113f 55f7 0a3f 5d46 9c3e
00000090: 71b9 193f 7ff1 ee3e ceb8 ac3e 61c7 003f
000000a0: 88ae e33e 87d0 d63e dcb9 9e3e 9848 a63e
000000b0: 0e1f 043f 446e e43e 86cb f23e 8fce 353f
000000c0: d044 773e 2641 b33e 66cd 1b3f 6db8 be3e
000000d0: 2aea 3a3f e42d 563f 7fad 1e3f 035e 083f
000000e0: 2c37 053f 837b fc3e 40f7 063f 0e8b d23e
000000f0: 5027 183f e6be 0e3f c518 183f 455c 453f

fc2.weight f4 [64, 64]
-0.07837911 -0.04084592 -0.04465399 -0.049723607 -0.036781512 -0.17237385 0.14215511 0.074217826
0.094285026 0.07790263 -0.09635933 -0.14869988 -0.07746818 0.28711948 0.01349184 0.07281805
-0.14928295 -0.0637976 -0.070142 0.042232923 -0.080956124 0.07499154 -0.08921894 -0.03964619
0.26443756 -0.14265753 -0.22053416 -0.06284413 -0.080019005 -0.087075375 -0.20679146 0.017254433
0.253149 0.09738995 0.06902767 -0.004365678 -0.22340702 -0.058265362 0.056959633 0.1823959
0.05379075 -0.08163236 -0.14512883 0.009966845 0.0071767746 -0.1017978 0.00046106114 0.0332216
-0.00797469 0.02092113 -0.13621747 0.10166687 0.081139155 0.026523022 0.07284889 -0.27022788
-0.11377966 0.17795256 0.14427648 0.18807572 0.008861194 -0.24110077 -0.018253606 -0.09910498
-0.26289836 0.010669704 0.10598502 -0.15300809 -0.05199638 -0.15903483 -0.03225943 -0.17566986
0.034462564 -0.07762995 -0.027496453 -0.1657677 0.16324842 0.081059545 -0.060653817 -0.14764087
-0.024520647 0.014804367 0.022811562 -0.025033927 0.1887981 0.064893045 0.21697025 -0.2112922
0.009917591 0.102782674 -0.22426276 -0.19987993 0.0765308 0.032415975 -0.08205391 -0.09996289
-0.031734414 -0.05637475 0.0049168 -0.053663183 -0.10401844 0.0846185 -0.2664668 0.083759785
0.30065602 0.12807404 -0.21645413 0.3298024 0.05680001 -0.012397415 -0.0712188 0.013342564
-0.092018805 0.09716509 0.058409408 0.053430974 0.023931514 0.078618154 0.11336379 -0.106151395
0.22801928 0.09211081 0.093878604 -0.032818474 0.06699485 -0.20391841 0.017153142 -0.14749514
-0.03868256 0.122491084 0.12159451 -0.019806944 -0.11351692 0.023701668 -0.15164822 -0.064798445
0.16132344 -0.12988573 -0.3189484 -0.13994813 0.006945242 -0.31943643 -0.10650638 0.069825515
0.06816283 0.0981068 -0.050334077 -0.13576706 0.038464125 0.1831021 -0.03024147 -0.12924907
0.115940414 -0.07222588 -0.09243006 0.21375564 0.19494586 -0.19859572 0.028208492 0.13096586
0.2590363 0.093425214 0.009899362 -0.09265438 0.07638202 -0.17883204 -0.10646948 -0.18237793
-0.07035957 0.10212211 0.06327933 0.014117182 -0.011913764 0.26472664 0.072289966 0.16740984
0.007254112 -0.020424135 -0.0023667924 -0.008074653 -0.020921642 0.1945067 -0.024208833 -0.007304819
-0.092708975 -0.149935 -0.108085245 -0.12148904 0.0002448532 -0.0073813517 0.04180144 -0.034851782
0.17814554 0.1258359 -0.046319094 0.10575112 0.086494826 -0.007829496 -0.063636936 -0.035204448
-0.15510835 0.0794725 0.030330231 0.05893777 -0.1904987 -0.146167 0.032326788 0.0319597
0.05614534 -0.08893704 0.23643833 -0.3685579 0.057337254 -0.041305576 -0.030453227 0.10800181
0.064472586 0.045627154 -0.212611 -0.06963472 0.11246598 -0.011135869 -0.035236496 -0.12725997
-0.005763525 0.05570684 0.02854316 -0.09011226 0.16103968 -0.13355996 0.09081965 -0.24081191
-0.005140527 0.04666089 0.083897956 -0.10779968 0.15555243 -0.11940156 -0.0702286 -0.029336473
0.07348479 -0.06528771 -0.21442579 -0.0797442 -0.055548027 -0.004720406 -0.19849154 -0.007110726
-0.27313003 -0.11348055 -0.13515966 0.08145336 0.0018293043 0.036263227 -0.109611146 -0.14735064
00000000: 3a85 a0bd 0d4e 27bd 1ae7 36bd fbaa 4bbd
00000010: 36a8 16bd c582 30be 1c91 113e 84ff 973d
00000020: 8218 c13d 6a8b 9f3d 0a58 c5bd c844 18be
00000030: a3a7 9ebd 5301 933e e10c 5d3c a121 953d
00000040: a1dd 18be 51a8 82bd 9ca6 8fbd 6efc 2c3d
00000050: 53cc a5bd 2a95 993d 6bb8 b6bd 0b64 22bd
00000060: 5c64 873e d114 12be b5d3 61be 6cb4 80bd
00000070: 01e1 a3bd 9354 b2bd 24c1 53be 2b59 8d3c
00000080: bf9c 813e 6274 c73d 615e 8d3d f60d 8fbb
00000090: cfc4 64be a9a7 6ebd 814e 693d fec5 3a3e
000000a0: b153 5c3d de2e a7bd a79c 14be fa4b 233c
000000b0: 262b eb3b 5d7b d0bd 94ba f139 5f13 083d
000000c0: 46a8 02bc ca62 ab3c 987c 0bbe b836 d03d
000000d0: 492c a63d cf46 d93c cd31 953d 4f5b 8abe
000000e0: 4f05 e9bd 3239 363e 37bd 133e ec96 403e
000000f0: 8b2e 113c 1fe3 76be 9688 95bc 8df7 cabd
00000100: 9d9a 86be fbcf 2e3c ad0e d93d 27ae 1cbe
00000110: 28fa 54bd 07da 22be 7722 04bd cde2 33be
00000120: 9e28 0d3d 74fc 9ebd 3e40 e1bc 02bf 29be
00000130: 982a 273e 8c02 a63d 2370 78bd 2b2f 17be
00000140: 86df c8bc 048e 723c 50df ba3c f313 cdbc
00000150: 4a54 413e a5e6 843d 732d 5e3e fc5c 58be
00000160: 647d 223c b97f d23d 23a5 65be 53ad 4cbe
00000170: 2ebc 9c3d 9dc6 043d e10b a8bd 58b9 ccbd
00000180: f2fb 01bd 36e9 66bd 1c1d a13b edcd 5bbd
00000190: 9f07 d5bd 774c ad3d 566e 88be 408a ab3d
000001a0: 96ef 993e d725 033e 27a6 5dbe dcdb a83e
000001b0: 21a7 683d 871e 4bbc 2adb 91bd c59a 5a3c
000001c0: 5b74 bcbd 7efe c63d b43e 6f3d 70da 5a3d
000001d0: 060c c43c 8e02 a13d 462b e83d e765 d9bd
000001e0: e37d 693e 98a4 bc3d 6d43 c03d aa6c 06bd
000001f0: 9934 893d fdcf 50be bf84 8c3c f708 17be
00000200: 9b71 1ebd 9bdc fa3d 8b06 f93d 2c42 a2bc
00000210: 8f7b e8bd 002a c23c ac49 1bbe 0cb5 84bd
00000220: f931 253e c400 05be 344d a3be 904e 0fbe
00000230: ea94 e33b 2c8d a3be 0420 dabd ae00 8f3d
00000240: f498 8b3d 38ec c83d 1b2b 4ebd 8506 0bbe
00000250: 8f8c 1d3d 1e7f 3b3e f6bc f7bc de59 04be
00000260: 2b72 ed3d 2aeb 93bd f94b bdbd c2e2 5a3e
00000270: e39f 473e ad5c 4bbe 7f15 e73c ea1b 063e
00000280: 68a0 843e b855 bf3d ef30 223c 94c1 bdbd
00000290: 2d6e 9c3d bf1f 37be ac0c dabd 48c1 3abe
000002a0: ae18 90bd 6625 d13d 9898 813d c14b 673c
000002b0: f331 43bc 408a 873e c30c 943d 7c6d 2b3e
000002c0: e7b3 ed3b 8450 a7bc 301c 1bbb 8d4b 04bc
000002d0: dd63 abbc c42c 473e 9a51 c6bc 435d efbb
000002e0: 34de bdbd 9088 19be cc5b ddbd 3fcf f8bd
000002f0: a45f 8039 44df f1bb fd37 2b3d bec0 0ebd
00000300: c96b 363e 20db 003e 17b9 3dbd 0b94 d83d
00000310: 3324 b13d 4947 00bc 1554 82bd 8a32 10bd
00000320: b9d4 1ebe 7ac2 a23d 1b77 f83c bb68 713d
00000330: 1712 43be cdac 15be 1869 043d 2de8 023d
00000340: a8f8 653d 9f24 b6bd e41c 723e 9fb3 bcbe
00000350: 78da 6a3d 0930 29bd 0c79 f9bc 0e30 dd3d
00000360: 340a 843d 8ae3 3a3d b3b6 59be a69c 8ebd
00000370: 9054 e63d 3873 36bc 2554 10bd 7050 02be
00000380: f4db bcbb db2c 643d 58d3 e93c c78c b8bd
00000390: 96e7 243e f1c3 08be a7ff b93d 6697 76be
000003a0: de71 a8bb 7d1f 3f3d b1d2 ab3d 14c6 dcbd
000003b0: 2349 1f3e ce88 f4bd 03d4 8fbd 0b53 f0bc
000003c0: 327f 963d 90b5 85bd 6f92 5bbe ed50 a3bd
000003d0: 5486 63bd a3ad 9abb 5e41 4bbe 1801 e9bb
000003e0: b3d7 8bbe 7e68 e8bd 4b67 0abe 05d1 a63d
000003f0: 44c5 ef3a c088 143d cf7b e0bd 16e3 16be

fc2.bias f4 [64]
-0.09097425 0.12538593 0.008075056 -0.017628698 0.2435567 -0.04534873 0.09939268 0.009025526
0.007083731 0.27895528 -0.035269085 0.07465728 0.01464963 -0.017541306 -0.060277365 -0.09035677
0.003300227 -0.12153609 -0.11074148 0.10850132 -0.066795535 -0.038684238 -0.07339086 -0.037357014
-0.017640797 -0.015589273 0.03246742 0.08458009 -0.09719352 -0.13363636 -0.09613428 -0.049312986
0.06629145 0.09546316 -0.0582039 0.07009375 0.037014667 0.105496146 -0.060121045 -0.12603353
-0.0763483 -0.099434696 -0.10620287 -0.029591564 0.121835664 -0.07186524 -0.094725475 0.056817833
0.07248175 0.11400711 -0.2095209 -0.079691015 0.06952658 -0.12751529 0.030482939 0.047662217
0.051807497 0.11815723 0.04859737 -0.027363928 0.008922854 0.10885045 0.012601512 -0.16766977
00000000: b550 babd 2b65 003e 3d4d 043c 0f6a 90bc
00000010: ed66 793e 97bf 39bd 648e cb3d cddf 133c
00000020: a41e e83b 3ad3 8e3e 5176 10bd ebe5 983d
00000030: 0005 703c c9b2 8fbc 66e5 76bd f80c b9bd
00000040: 9f48 583b eae7 f8bd 6ecc e2bd f135 de3d
00000050: 19cc 88bd 5d73 1ebd f24d 96bd ab03 19bd
00000060: 6f83 90bc 266a 7fbc 8ffc 043d 5438 ad3d
00000070: 650d c7bd f8d7 08be 0de2 c4bd 6afc 49bd
00000080: d0c3 873d 3082 c33d 3667 6ebd 508d 8f3d
00000090: b19c 173d 5d0e d83d 7c41 76bd ef0e 01be
000000a0: 7f5c 9cbd 6ba4 cbbd e480 d9bd 026a f2bc
000000b0: fa84 f93d 152e 93bd 6eff c1bd d1b9 683d
000000c0: 5071 943d 8f7c e93d a68c 56be 0b35 a3bd
000000d0: f463 8e3d 5e93 02be 5bb7 f93c 7539 433d
000000e0: 1934 543d 6bfc f13d 090e 473d 512a e0bc
000000f0: 2a31 123c fcec de3d 9276 4e3c a0b1 2bbe

bn2.weight f4 [64]
0.9316683 1.0083002 0.9846319 0.93548447 1.14883 0.95620346 1.1087952 1.2079412
0.9548427 0.9054208 1.0055583 0.9929394 1.0659856 0.97225046 1.0107938 0.9153165
0.87886065 1.070139 0.8000964 0.9535171 1.0111449 0.91622007 0.8936983 0.9511796
1.0014929 1.0235186 1.0204011 1.0493348 1.1453208 0.91558665 0.9842174 0.93468344
0.89710706 1.1039438 0.9602267 1.076634 0.98030925 0.9505259 1.0206727 1.0177163
0.86170596 1.1312964 0.9339321 0.9243621 1.0359561 1.1336321 1.0930846 0.95854735
0.97346765 0.9445789 0.9080017 0.94399345 1.1644101 1.1462741 1.0979269 0.99687755
0.92913055 1.0549812 1.0077723 0.8930982 0.97735935 0.9985136 1.0178246 1.0316224
00000000: d081 6e3f fb0f 813f d610 7c3f e97b 6f3f
00000010: dd0c 933f c0c9 743f 00ed 8d3f d19d 9a3f
00000020: 9270 743f a8c9 673f 22b6 803f 4731 7e3f
00000030: 3772 883f 68e5 783f b161 813f 2f52 6a3f
00000040: 03fd 603f 51fa 883f 1ed3 4c3f b219 743f
00000050: 326d 813f 668d 6a3f 69c9 643f 8280 733f
00000060: eb30 803f a802 833f 819c 823f 9a50 863f
00000070: df99 923f e363 6a3f acf5 7b3f 6a47 6f3f
00000080: cfa8 653f 084e 8d3f 6bd1 753f 25cf 893f
00000090: 8cf5 7a3f aa55 733f 67a5 823f 8744 823f
000000a0: c398 5c3f 52ce 903f 2d16 6f3f ffa2 6c3f
000000b0: 369a 843f db1a 913f 32ea 8b3f 5c63 753f
000000c0: 2d35 793f eccf 713f cd72 683f 8ea9 713f
000000d0: 640b 953f 1cb9 923f de88 8c3f 5e33 7f3f
000000e0: 80db 6d3f a009 873f affe 803f 15a2 643f
000000f0: 3934 7a3f 969e 7f3f 1448 823f 340c 843f

bn2.bias f4 [64]
-0.13166672 -0.13969125 -0.18245122 -0.050170615 -0.2483997 -0.14882877 -0.14470759 -0.25691688
-0.08159893 -0.12763508 -0.16844821 -0.06297773 -0.25322887 -0.17105925 -0.26227477 -0.52719045
0.2113317 -0.17769949 -0.17800793 -0.45558637 0.043823108 -0.14914681 0.0015356818 -0.29541713
-0.18235238 -0.10910911 -0.11810603 -0.14008881 -0.0659017 -0.15883043 -0.34288135 -0.36837083
-0.793466 -0.20662032 -0.4442821 -0.040441867 0.10474251 -0.15937185 -0.1922083 -0.07436739
-0.062484425 -0.32444033 -0.11949301 -0.10604314 -0.32147253 -0.36536136 -0.28792652 -0.07554777
-0.19494031 -0.19743948 -0.41501108 0.024447042 0.12659904 -0.2598005 -0.19798681 -0.459875
-0.108146474 -0.18064909 -0.16070275 -0.09137357 -0.52648145 -0.25677213 -0.49401024 0.045177612
00000000: a4d3 06be 390b 0fbe 7ed4 3abe b47f 4dbd
00000010: 7e5c 7ebe 9266 18be 3a2e 14be 9c8a 83be
00000020: 571d a7bd c5b2 02be b07d 2cbe 78fa 80bd
00000030: 37a7 81be 282a 2fbe e148 86be f4f5 06bf
00000040: 5667 583e dbf6 35be b647 36be 9e42 e9be
00000050: dc7f 333d f1b9 18be ee48 c93a ea40 97be
00000060: 95ba 3abe 9974 dfbd 93e1 f1bd 7173 0fbe
00000070: 78f7 86bd 72a4 22be 258e afbe 1a9b bcbe
00000080: 9620 4bbf 4794 53be f278 e3be 5fa6 25bd
00000090: 3e83 d63d 6032 23be 41d2 44be ee4d 98bd
000000a0: abef 7fbd 0b1d a6be c0b8 f4bd 252d d9bd
000000b0: 0c98 a4be a510 bbbe 1b6b 93be cab8 9abd
000000c0: 6f9e 47be 932d 4abe 557c d4be 2a45 c83c
000000d0: 2ea3 013e 9204 85be 0ebd 4abe bc74 ebbe
000000e0: e67b ddbd 13fc 38be 438f 24be 1122 bbbd
000000f0: 7dc7 06bf a377 83be e9ee fcbe 290c 393d

bn2.running_mean f4 [64]
-0.41566202 -0.22721241 -0.19458967 -0.64375263 -0.5847972 -0.115126975 0.32876724 -0.0805736
0.9417824 0.8604275 0.39537486 -1.0201558 -0.57817364 0.15277602 -0.27713257 -0.56601244
-1.1198688 -1.0862616 -0.21734665 0.08987908 -1.232053 0.11776966 -1.0053756 -0.015461088
0.002748068 -0.06560399 -0.35736802 0.1990108 -0.1651257 0.48000336 -0.422319 -0.20406467
0.1651252 -0.24292055 0.09825478 -0.1483562 -0.25492844 0.4325983 -0.121512 -0.5637929
-0.02971467 -0.21162155 -0.60223556 0.33736366 -0.364314 -0.36191905 -0.08143762 0.097052895
-0.11746688 0.36896577 -0.8828269 0.0054549444 0.032198995 -0.82019866 0.48433065 -0.62799734
0.10662652 -0.00879648 -0.3700103 -0.042850994 -0.2375013 -0.3595528 0.3289212 -0.07396386
00000000: a7d1 d4be 5faa 68be 8442 47be f9cc 24bf
00000010: 45b5 15bf b1c7 ebbd 2e54 a83e c603 a5bd
00000020: a718 713f fa44 5c3f 936e ca3e 7794 82bf
00000030: 3003 14bf 5171 1c3e 52e4 8dbe 31e6 10bf
00000040: dc57 8fbf 9f0a 8bbf 1f90 5ebe 8612 b83d
00000050: eab3 9dbf 3831 f13d 26b0 80bf 8150 7dbc
00000060: ee18 343b 625b 86bd f1f8 b6be 7dc9 4b3e
00000070: b616 29be 00c3 f53e 323a d8be 54f6 50be
00000080: 9516 293e 2ac0 78be cd39 c93d b0ea 17be
00000090: fb85 82be 867d dd3e 49db f8bd bb54 10bf
000000a0: 2e6c f3bc 52b3 58be 1c2c 1abf eeba ac3e
000000b0: 5d87 babe 744d b9be c4c8 a6bd abc3 c63d
000000c0: 7a92 f0bd 15e9 bc3e f200 62bf 64bf b23b
000000d0: 18e3 033d 8af8 51bf 30fa f73e 6fc4 20bf
000000e0: 015f da3d 1c1f 10bc fd71 bdbe 8684 2fbd
000000f0: 8a33 73be 4e17 b8be 5c68 a83e 5d7a 97bd

bn2.running_var f4 [64]
0.36792043 0.395109 0.7160449 0.26148215 0.4166074 0.48156136 0.35831836 0.35990337
0.47362623 0.30726606 0.28332177 0.39721712 0.30333707 0.34449515 0.22631821 0.3238474
0.37519324 0.43700275 0.3053488 0.4393635 0.5485398 0.4810799 0.4215802 0.43224794
0.53922725 0.49029428 0.84145766 0.48869112 0.55576026 0.36024264 0.2835503 0.25396392
0.19197397 0.27734166 0.15857787 0.43808633 0.40615356 0.22455515 0.57591295 0.56367826
0.28213948 0.3198259 0.4582441 0.26829198 0.37633935 0.52753973 0.5160559 0.32765114
0.4554759 0.40225032 0.27134344 0.399399 0.8879986 0.9123287 0.5677684 0.26565513
0.44421816 0.3825302 0.32732183 0.46430153 0.248271 0.6485611 0.47697312 0.39706507
00000000: 1160 bc3e ba4b ca3e b84e 373f fde0 853e
00000010: 914d d53e 368f f63e 8175 b73e 4145 b83e
00000020: 237f f23e fa51 9d3e 8d0f 913e 0b60 cb3e
00000030: ff4e 9b3e ab61 b03e f6bf 673e 54cf a53e
00000040: 5419 c03e d3be df3e ae56 9c3e 41f4 e03e
00000050: 1b6d 0c3f 1b50 f63e 5cd9 d73e 9a4f dd3e
00000060: cc0a 0a3f da07 fb3e c569 573f b935 fa3e
00000070: 4e46 0e3f b971 b83e 812d 913e 8f07 823e
00000080: d394 443e baff 8d3e 3d62 223e da4c e03e
00000090: 5cf3 cf3e c9f1 653e 086f 133f 384d 103f
000000a0: 9674 903e 38c0 a33e f89e ea3e 915d 893e
000000b0: 8daf c03e d80c 073f 3d1c 043f e4c1 a73e
000000c0: 2334 e93e c1f3 cd3e 87ed 8a3e 077e cc3e
000000d0: e053 633f 608e 693f 4559 113f f303 883e
000000e0: 9070 e33e 00db c33e ba96 a73e eeb8 ed3e
000000f0: c13a 7e3e 1a08 263f d235 f43e 1d4c cb3e

fc3.weight f4 [64, 64]
-0.07099793 -0.046786282 0.14853649 -0.03598362 0.12747385 0.080515414 -0.1360349 -0.0054949513
-0.060920164 -0.06668093 -0.19551426 0.08898266 -0.16654523 -0.02740798 0.0082083475 -0.04259548
0.04681266 0.041432172 -0.0042344215 0.1078755 0.05436376 0.0367091 0.09713706 0.009597532
-0.07234113 -0.14280383 0.061799873 0.026351683 0.048079446 -0.051380042 0.008838795 -0.11239576
-0.33540532 -0.041669376 0.073937625 0.22036166 -0.11213106 -0.005950268 -0.16385831 0.026234493
0.010201692 0.12637003 -0.15966149 -0.042491205 0.02217014 -0.103282526 0.059808765 0.086453125
0.038673434 -0.092800125 -0.19973287 -0.24835272 -0.058776073 -0.051875263 0.02123561 0.23874962
0.009445907 0.060175564 0.03073583 -0.072970256 -0.21204104 -0.12952477 0.13166676 0.00031261262
-0.0066836514 -0.035564132 0.20001994 0.099148646 0.003756562 -0.12931825 -0.23975496 -0.15179795
0.117977366 -0.26706126 -0.08485651 -0.17969169 0.017911935 0.11877113 -0.024865521 0.28393233
0.060122613 0.0041786535 -0.051770743 0.15439372 -0.030346027 -0.06661647 -0.116099656 0.16780764
-0.023452688 0.00069456146 0.022571916 -0.08771555 -0.013980159 -0.09047696 0.018829236 0.0048394417
0.020343661 -0.24141863 0.06770136 0.0126566235 -0.04322853 -0.0004181069 -0.035178747 0.11400111
-0.12385411 0.15375733 -0.3223862 0.023969537 0.14086607 -0.1237315 0.017567527 0.09933249
-0.23095243 -0.24417123 0.076049484 0.09435965 -0.020637667 -0.2723408 -0.014643887 0.09374928
0.10764653 0.22367945 0.16232179 -0.02442801 0.11274459 -0.1812357 -0.03674199 -0.20907326
-0.032084808 0.063005865 0.08941544 0.014509967 -0.14718834 0.1026916 0.10352234 0.004782015
0.14534199 -0.039302014 0.0021456962 -0.08184945 0.041187007 0.019905385 0.09047849 0.013325361
-0.04084407 -0.308274 -0.08917425 0.06636763 0.020137565 -0.07525255 -0.092666365 0.030219555
0.016274115 0.07538756 -0.046763793 -0.019285567 0.056008194 0.07013223 0.063113675 0.06552373
0.02124455 -0.011100702 0.024620743 -0.0062482296 -0.015726795 -0.03681441 0.190376 0.022183385
0.01516225 0.04790807 0.10126689 0.12119788 -0.02985098 -0.043176167 0.18858401 0.09239786
-0.055232458 0.19222276 0.11149362 0.050022457 0.090020135 0.038094174 0.15525572 0.09947801
-0.14609371 -0.19869675 -0.16936475 -0.020502185 0.012920836 -0.034054957 -0.13268849 -0.11738701
-0.16842107 0.11252733 -0.072559446 0.092572674 -0.25274086 0.08720669 0.2069197 -0.092813306
-0.08261004 0.07971988 -0.061777636 -0.01572061 0.027537022 -0.047687378 -0.11452838 -0.1923283
0.112592034 0.19664258 0.1462993 -0.0127375815 0.08223868 0.06439429 -0.050475415 0.04546586
-0.064593665 0.13317382 -0.02194111 0.11395963 0.05257007 -0.038908638 0.056309067 0.17214353
-0.103109546 -0.0016660151 -0.13709234 -0.07308488 0.08858339 0.13171378 0.067435995 0.1364579
-0.23348558 0.0036718785 0.046197914 -0.115547374 -0.118877664 0.011304735 -0.1519697 -0.010244303
-0.17581263 -0.06424509 -0.0021080687 -0.13964127 -0.054251533 0.0845746 -0.13666525 -0.11176631
0.055686213 -0.19192539 0.060002442 0.1649328 0.07189051 -0.08035129 -0.04440739 0.061679732
00000000: 5d67 91bd f9a2 3fbd f319 183e 8f63 13bd
00000010: 8188 023e 44e5 a43d bc4c 0bbe fe0e b4bb
00000020: 6c87 79bd 0390 88bd e434 48be 8a3c b63d
00000030: d58a 2abe b386 e0bc 4e7c 063c 9978 2ebd
00000040: a2be 3f3d c8b4 293d e7c0 8abb d5ed dc3d
00000050: 89ac 5e3d 485c 163d cbef c63d f83e 1d3c
00000060: 9627 94bd 2b3b 12be dd21 7d3d 7cdf d73c
00000070: f4ee 443d e173 52bd 98d0 103c c02f e6bd
00000080: 3fba abbe 82ad 2abd 9c6c 973d 7da6 613e
00000090: f8a4 e5bd 77fa c2bb 79ca 27be b8e9 d63c
000000a0: ff24 273c 2567 013e 4d7e 23be 420b 2ebd
000000b0: 279e b53c ca85 d3bd 09fa 743d 560e b13d
000000c0: 0968 1e3d fe0d bebd c686 4cbe 2d50 7ebe
000000d0: 2ebf 70bd 287b 54bd 4df6 ad3c c87a 743e
000000e0: 01c3 1a3c a77a 763d b5c9 fb3c 6e71 95bd
000000f0: 4921 59be 24a2 04be a7d3 063e 28e6 a339
00000100: 8802 dbbb b2ab 11bd 07d2 4c3e 720e cb3d
00000110: a730 763b 016c 04be 5382 75be ec70 1bbe
00000120: 1e9e f13d 41bc 88be 40c9 adbd 1901 38be
00000130: 0dbc 923c 473e f33d c7b2 cbbc 945f 913e
00000140: 2143 763d 16ed 883b 8f0d 54bd 6319 1e3e
00000150: 3b98 f8bc 376e 88bd a8c5 edbd c4d5 2b3e
00000160: da1f c0bc 3b13 363a bde8 b83c 36a4 b3bd
00000170: 090d 65bc fc4b b9bd c53f 9a3c 2e94 9e3b
00000180: c0a7 a63c 7236 77be 03a7 8a3d ba5d 4f3c
00000190: 6610 31bd 5c35 dbb9 9717 10bd 6a79 e93d
000001a0: 39a7 fdbd 9072 1d3e ce0f a5be c35b c43c
000001b0: 323f 103e f166 fdbd c6e9 8f3c d56e cb3d
000001c0: cb7e 6cbe 0608 7abe d5bf 9b3d a23f c13d
000001d0: 5310 a9bc 4170 8bbe eaec 6fbc 9fff bf3d
000001e0: c975 dc3d 3a0c 653e af37 263e 401d c8bc
000001f0: a3e6 e63d da95 39be c57e 16bd 4d17 56be
00000200: 5c6b 03bd 3809 813d 711f b73d 36bb 6d3c
00000210: 8ab8 16be f94f d23d 8503 d43d 73b2 9c3b
00000220: 88d4 143e 26fb 20bd cf9e 0c3b afa0 a7bd
00000230: b5b3 283d 9e10 a33c c94c b93d 9d52 5a3c
00000240: 1d4c 27bd 17d6 9dbe fda0 b6bd c1eb 873d
00000250: 89f7 a43c 021e 9abd ddc7 bdbd 008f f73c
00000260: 4b51 853c cb64 9a3d 648b 3fbd c4fc 9dbc
00000270: d968 653d 7da1 8f3d be41 813d 4e31 863d
00000280: 0d09 ae3c b8df 35bc 71b1 c93c f3bd ccbb
00000290: 7bd5 80bc b5ca 16bd edf1 423e eeb9 b53c
000002a0: 166b 783c 413b 443d 0465 cf3d 9836 f83d
000002b0: 0b8a f4bc 7ed9 30bd 2b1c 413e 173b bd3d
000002c0: 6e3b 62bd 0bd6 443e c456 e43d 59e4 4c3d
000002d0: 7a5c b83d a308 1c3d 5bfb 1e3e 20bb cb3d
000002e0: 9799 15be 2977 4bbe f46d 2dbe 33f4 a7bc
000002f0: eab1 533c 367d 0bbd 7edf 07be 9a68 f0bd
00000300: 9376 2cbe bb74 e63d 0c9a 94bd be96 bd3d
00000310: 4067 81be 6c99 b23d c2e2 533e e714 bebd
00000320: 742f a9bd 2d44 a33d 8c0a 7dbd 82c8 80bc
00000330: 5295 e13c d753 43bd db8d eabd b6f1 44be
00000340: a796 e63d ac5c 493e 7ccf 153e 4ab1 50bc
00000350: c16c a83d 27e1 833d 4fbf 4ebd 693a 3a3d
00000360: af49 84bd b85e 083e d8bd b3bc ab63 e93d
00000370: b753 573d aa5e 1fbd 56a4 663d 6546 303e
00000380: 192b d3bd 315e daba ef61 0cbe 87ad 95bd
00000390: 356b b53d fadf 063e e21b 8a3d 9fbb 0b3e
000003a0: d816 6fbe e6a3 703b 063a 3d3d 1aa4 ecbd
000003b0: 2276 f3bd 7f37 393c f29d 1bbe b9d7 27bc
000003c0: 3a08 34be ee92 83bd 8627 0abb 1ffe 0ebe
000003d0: db36 5ebd 7335 ad3d faf1 0bbe bce5 e4bd
000003e0: 3a17 643d 1788 44be 1fc5 753d 25e4 283e
000003f0: 553b 933d 388f a4bd 86e4 35bd e3a3 7c3d

fc3.bias f4 [64]
-0.053442243 0.08113233 -0.045681663 -0.10035443 0.07942867 0.025607359 0.044497445 0.0154498
-0.08339841 0.09337141 -0.098478675 0.10572311 0.0075674704 0.022582235 0.06372369 -0.09520752
0.07313868 0.07447367 0.006187925 -0.1033219 0.009564808 -0.0054584434 -0.09025234 0.04131049
0.13191932 0.06473222 0.06868441 0.03091345 -0.048785724 0.047297057 -0.0113775935 -0.09857045
-0.0040723393 0.10855736 0.12581705 0.12645571 -0.019959044 -0.11335413 -0.034218576 -0.009491131
-0.1151662 0.113589935 -0.07196582 -0.07153416 -0.07683021 -0.057706155 -0.0639153 -0.09746909
0.01947197 -0.025625655 -0.14993131 0.049225215 -0.031556882 0.00951428 -0.04543971 0.04307091
-0.016023248 0.05226749 0.07015933 -0.03540836 0.055979393 0.055980194 -0.017521111 -0.08547497
00000000: 41e6 5abd b528 a63d b21c 3bbd a086 cdbd
00000010: 80ab a23d 86c6 d13c f442 363d 2821 7d3c
00000020: c9cc aabd 8339 bf3d 30af c9bd 5c85 d83d
00000030: 8bf8 f73b 61fe b83c 9181 823d 29fc c2bd
00000040: bbc9 953d a785 983d 14c4 ca3b 6f9a d3bd
00000050: b6b5 1c3c bedc b2bb 38d6 b8bd 3035 293d
00000060: dc15 073e 5392 843d 69aa 8c3d 343e fd3c
00000070: 8ad3 47bd 8fba 413d 1669 3abc 4edf c9bd
00000080: 4271 85bb 5253 de3d 2fd6 003e 9b7d 013e
00000090: 2681 a3bc 3626 e8bd c728 0cbd b080 1bbc
000000a0: 42dc ebbd d7a1 e83d d162 93bd 8080 92bd
000000b0: 2859 9dbd 4a5d 6cbd 06e6 82bd e09d c7bd
000000c0: ae83 9f3c e5ec d1bc 9887 19be 61a0 493d
000000d0: ca41 01bd c8e1 1b3c fd1e 3abd 1f6b 303d
000000e0: 3043 83bc 7016 563d b2af 8f3d 5b08 11bd
000000f0: a64a 653d 7d4b 653d 6f88 8fbc 800d afbd

bn3.weight f4 [64]
0.98866624 1.1270365 0.9322606 1.0252699 1.0057802 1.1056488 0.9590325 1.1071066
1.1699005 1.0807022 1.0427793 1.0909871 0.9318853 1.027769 1.0397904 1.0673962
1.056006 0.9759971 0.96764874 0.9898867 1.064945 1.1265796 0.9784619 1.1332622
1.0924796 1.0312893 1.052972 1.0288979 1.0393884 0.95057833 1.0883311 1.0083464
1.0428983 0.993058 1.0184124 1.013406 1.0614527 1.0571 1.0099738 0.94911057
0.9935949 1.0360688 0.9839028 1.107648 0.9828409 0.9554511 1.0689127 1.1819391
1.0402312 1.1067775 0.94378054 1.0231056 0.94372433 0.9419755 0.974809 0.95785356
1.1381794 1.017836 0.9396327 1.1438518 1.1792134 1.0800045 1.0513079 0.97776943
00000000: 3b19 7d3f bb42 903f a1a8 6e3f 0b3c 833f
00000010: 68bd 803f e685 8d3f 2783 753f abb5 8d3f
00000020: 4dbf 953f 7354 8a3f cb79 853f 77a5 8b3f
00000030: 0990 6e3f ef8d 833f da17 853f 70a0 883f
00000040: 342b 873f f2da 793f d4b7 773f 3769 7d3f
00000050: 1e50 883f c333 903f 7b7c 7a3f bc0e 913f
00000060: 5fd6 8b3f 4a01 843f c9c7 863f edb2 833f
00000070: ae0a 853f 1a59 733f 6f4e 8b3f 7f11 813f
00000080: b17d 853f 0d39 7e3f 565b 823f 4ab7 813f
00000090: afdd 873f 0e4f 873f d246 813f e9f8 723f
000000a0: 3c5c 7e3f e79d 843f 0ee1 7b3f 69c7 8d3f
000000b0: 769b 7b3f 7198 743f 22d2 883f c849 973f
000000c0: 4c26 853f e3aa 8d3f 9a9b 713f 20f5 823f
000000d0: eb97 713f 4e25 713f 158d 793f e435 753f
000000e0: ddaf 913f 7348 823f c58b 703f bc69 923f
000000f0: 77f0 963f 963d 8a3f 4291 863f 194f 7a3f

bn3.bias f4 [64]
0.036868397 -0.47455603 -0.09105671 -0.08640912 -0.16602963 -0.4899157 -0.058132675 -1.6427411
0.009286125 -0.40836695 -0.16407324 -0.35761833 -0.30114362 -0.012405354 -0.047600027 0.08030722
-0.14927495 -0.050407197 -0.15857464 -0.11080524 -0.58294314 -0.06927921 -0.010208151 -0.4851851
-0.03343668 -0.6817346 -0.11877015 -0.020402817 -0.14238577 -0.19334838 0.029384132 -0.1908411
-0.10177347 -0.054427866 -0.13493206 -0.074039444 -0.5527514 -0.39487994 -0.24490373 -0.07318095
-0.14577919 -0.028805524 -0.14236216 -0.11223531 -0.108220235 -0.041186336 -0.31028348 -1.0972741
0.0024014548 -0.34904262 -0.10590437 -0.028682357 -0.3506066 -0.05888308 -0.05394912 -0.7271315
-0.09620226 -0.07634317 -0.12696448 0.0027519013 -0.22494069 0.3208394 -0.3018234 -0.12879828
00000000: 5103 173d 02f9 f2be f17b babd 44f7 b0bd
00000010: ac03 2abe 3bd6 fabe 871c 6ebd 5745 d2bf
00000020: d524 183c 7915 d1be d102 28be c019 b7be
00000030: 7f2f 9abe d33f 4bbc 3ff8 42bd 1d78 a43d
00000040: 88db 18be c777 4ebd 6461 22be dced e2bd
00000050: c33b 15bf 42e2 8dbd 1740 27bc 2e6a f8be
00000060: e6f4 08bd 2986 2ebf c43d f3bd cf23 a7bc
00000070: 93cd 11be 1efd 45be feb6 f03c d96b 43be
00000080: 9c6e d0bd c1ef 5ebd a12b 0abe fea1 97bd
00000090: 1e81 0dbf b42d cabe 0bc8 7abe e5df 95bd
000000a0: 2447 15be 90f9 ebbc 63c7 11be a0db e5bd
000000b0: 92a2 ddbd 01b3 28bd 7add 9ebe 7a73 8cbf
000000c0: ba61 1d3b b7b5 b2be 64e4 d8bd 43f7 eabc
000000d0: b582 b3be 622f 71bd c1f9 5cbd 4a25 3abf
000000e0: b105 c5bd cf59 9cbd fa02 02be 3e59 343b
000000f0: da56 66be 1045 a43e 9988 9abe b2e3 03be

bn3.running_mean f4 [64]
-0.3170837 -0.3660277 0.14506675 -0.15506318 -0.12692182 -0.47764754 0.562696 -0.16913942
-0.092454396 -0.27422565 0.09946785 -0.384176 0.111878395 -0.1137634 0.14166367 -0.25771722
-0.108618535 0.050212223 -0.034114335 -0.10899846 -0.67424667 0.15354265 0.36337897 -0.6164659
0.44473478 -0.13445063 -0.31323335 -0.21556817 -0.04678791 0.14380954 -0.2379609 -0.2612626
0.3491359 0.41893044 0.031949315 -0.059824783 -0.0839313 -0.5159557 -0.23526324 -0.5478276
0.2400656 0.40041757 0.14962557 -0.026102766 0.29791078 -0.3445599 -0.45643362 -0.29617447
-0.19267517 -0.19384542 -0.053691775 0.19451863 -0.2367626 -0.32642278 0.06091702 -0.3220263
0.08165109 -0.49494115 0.5674988 0.006523 -0.33773804 0.53930926 -0.5248376 -0.40795112
00000000: cb58 a2be fc67 bbbe 618c 143e e2c8 1ebe
00000010: cbf7 01be 388e f4be d80c 103f e232 2dbe
00000020: bb58 bdbd 4e67 8cbe cdb5 cb3d b7b2 c4be
00000030: 8020 e53d c9fc e8bd 4810 113e 83f3 83be
00000040: 6573 debd 55ab 4d3d 79bb 0bbd 963a dfbd
00000050: 6e9b 2cbf 493a 1d3e cf0c ba3e b6d0 1dbf
00000060: 47b4 e33e 6dad 09be 1f60 a0be e7bd 5cbe
00000070: aea4 3fbd cf42 133e 06ac 73be 36c4 85be
00000080: f1c1 b23e 0d7e d63e 49dd 023d d50a 75bd
00000090: 2ce4 abbd ac15 04bf d9e8 70be 6e3e 0cbf
000000a0: c2d3 753e 8803 cd3e 7237 193e 78d5 d5bc
000000b0: c387 983e 286a b0be abb1 e9be 2ea4 97be
000000c0: a44c 45be 6a7f 46be e8eb 5bbd e42f 473e
000000d0: e571 72be e320 a7be 2084 793d a2e0 a4be
000000e0: b038 a73d ed68 fdbe 9a47 113f e4be d53b
000000f0: 00ec acbe 2c10 0a3f c25b 06bf f8de d0be

bn3.running_var f4 [64]
0.28527427 0.120454185 0.14292385 0.2768708 0.19535413 0.13483274 0.19883963 0.06960433
0.21373858 0.12862988 0.1732603 0.22966221 0.41240147 0.19768241 0.3613962 0.3333888
0.3044685 0.28816333 0.27549526 0.21689321 0.11715195 0.24704391 0.16073762 0.17730457
0.18636626 0.06601525 0.22078905 0.19046482 0.23465459 0.08560709 0.11711137 0.21710731
0.24386439 0.17264542 0.18057618 0.15332612 0.206518 0.2503218 0.15660216 0.35540858
0.18373202 0.19220129 0.30082515 0.2796814 0.3269853 0.5212417 0.18784839 0.08304431
0.09585337 0.20984824 0.2015821 0.13852844 0.10281585 0.21002685 0.31707054 0.09267289
0.3015478 0.3925812 0.31015322 0.29380202 0.16233268 0.17863688 0.21963161 0.2788025
00000000: 780f 923e afb0 f63d a15a 123e 02c2 8d3e
00000010: ea0a 483e 9811 0a3e 9e9c 4b3e b78c 8e3d
00000020: 49de 5a3e 8db7 033e 266b 313e 922c 6b3e
00000030: 4926 d33e 426d 4a3e ec08 b93e f0b1 aa3e
00000040: 4ce3 9b3e 258a 933e b70d 8d3e 4119 5e3e
00000050: 5ded ef3d 14f9 7c3e 6798 243e 548f 353e
00000060: ccd6 3e3e 0133 873d 8616 623e 3609 433e
00000070: 4b49 703e c552 af3d 16d8 ef3d 6151 5e3e
00000080: 96b7 793e f6c9 303e f6e8 383e 8601 1d3e
00000090: 7479 533e 2e2a 803e 515c 203e 1df8 b53e
000000a0: 3f24 3c3e 6ad0 443e c105 9a3e 6732 8f3e
000000b0: 9e6a a73e 1970 053f 545b 403e 2313 aa3d
000000c0: c64e c43d 75e2 563e 8a6b 4e3e 66da 0d3e
000000d0: 1e91 d23d 4711 573e 1257 a23e 49cb bd3d
000000e0: 7964 9a3e 6700 c93e 67cc 9e3e 386d 963e
000000f0: 8a3a 263e 96ec 363e 1ce7 603e 34bf 8e3e

fc4.weight f4 [2, 64]
0.045553233 0.12864321 -0.06520296 0.07731838 0.15044409 -0.13795252 -0.03363095 0.41253218
0.019612756 0.1830904 -0.07747222 -0.06655129 -0.07180912 0.19278035 -0.02615101 -0.027251894
0.09753658 -0.08928918 -0.008820675 0.123514675 0.25737193 0.13708144 -0.03734755 0.1740736
-0.14348003 0.25793406 0.016166475 0.16703202 0.10657415 -0.039927423 -0.07923058 0.010918912
-0.14468992 -0.09520488 0.15434892 0.035464313 -0.068443865 -0.13554463 -0.0936075 0.11225099
-0.11786517 0.10786583 0.0097370315 0.09350497 -0.02385984 0.061589118 0.20124456 -0.08934073
-0.12978047 -0.049951173 -0.075174734 0.08301727 0.14520732 -0.04357915 -0.12632471 0.28227738
0.1435765 0.07013665 -0.022040753 -0.06731053 0.25514755 0.13649099 -0.083234474 -0.002541058
0.19714013 -0.16119403 -0.041444723 -0.07523983 -0.000253308 0.20021267 -0.08201278 0.22229213
0.15551089 -0.0015682443 -0.09420177 0.25992304 0.13883342 -0.08273861 -0.15774526 0.1816875
-0.10373575 -0.025629153 -0.15747984 0.081938684 -0.15107642 -0.040787894 -0.09465999 -0.15424354
0.15048961 -0.15043966 0.22206564 0.038154427 -0.040050354 -0.120568976 0.13162522 0.1834825
0.06394627 0.07037372 0.030862648 -0.13860787 0.2854622 0.1557572 0.11208641 0.00716601
-0.028496742 -0.009544914 0.11533404 -0.14651825 -0.12573415 0.074810594 -0.019621879 0.49737263
-0.028788628 0.27371642 0.020009803 -0.09326632 0.06053012 0.10515271 0.03598867 -0.10683627
-0.17218404 -0.10579743 0.09579934 0.15113664 -0.10580759 7.65468e-05 0.18978183 -0.11758865
00000000: 0796 3a3d 0cbb 033e 2189 85bd 1959 9e3d
00000010: 040e 1a3e 6d43 0dbe 9bc0 09bd 6b37 d33e
00000020: eeaa a03c 0d7c 3b3e c1a9 9ebd 0b4c 88bd
00000030: a910 93bd 3668 453e a53a d6bc 5d3f dfbc
00000040: 42c1 c73d 3fdd b6bd 9884 10bc 43f5 fc3d
00000050: 41c6 833e 145f 0c3e bff9 18bd 5a40 323e
00000060: 6eec 12be ef0f 843e 8e6f 843c 710a 2b3e
00000070: 8c43 da3d f08a 23bd a443 a2bd 3ce5 323c
00000080: 9829 14be c7fa c2bd a50d 1e3e 0743 113d
00000090: 4c2c 8cbd 36cc 0abe 4ab5 bfbd d9e3 e53d
000000a0: 4b63 f1bd c3e8 dc3d 1288 1f3c 897f bf3d
000000b0: b675 c3bc df44 7c3d 0e13 4e3e 46f8 b6bd
000000c0: 2ce5 04be 9a99 4cbd 36f5 99bd f504 aa3d
000000d0: 3ab1 143e 0d80 32bd 445b 01be a986 903e
000000e0: b805 133e cea3 8f3d cf8e b4bc 1ada 89bd
000000f0: b3a2 823e 4bc4 0b3e d676 aabd e187 26bb
00000100: 1adf 493e 0c10 25be f1c1 29bd 5717 9abd
00000110: 6dce 84b9 8d04 4d3e 51f6 a7bd 8ca0 633e
00000120: 3f3e 1f3e 8c8d cdba dcec c0bd a214 853e
00000130: 592a 0e3e dc72 a9bd f987 21be 4a0c 3a3e
00000140: 6973 d4bd 3bf4 d1bc 6542 21be 78cf a73d
00000150: c7b3 1abe 3511 27bd 19dd c1bd 05f2 1dbe
00000160: f319 1a3e db0c 1abe 2d65 633e d147 1c3d
00000170: d70b 24bd deec f6bd c3c8 063e d6e2 3b3e
00000180: 43f6 823d 1920 903d aad3 fc3c 39ef 0dbe
00000190: 1a28 923e d17e 1f3e 8f8d e53d d9d0 ea3b
000001a0: 0072 e9bc 4562 1cbc 4134 ec3d e108 16be
000001b0: 74c0 00be 4c36 993d 10be a0bc a0a7 fe3e
000001c0: 21d6 ebbc 8f24 8c3e 99eb a33c 6a02 bfbd
000001d0: 6eee 773d 4e5a d73d db68 133d f9cc dabd
000001e0: 0351 30be 53ac d8bd 7232 c43d 90c3 1a3e
000001f0: a6b1 d8bd c087 a038 2b56 423e 51d2 f0bd

fc4.bias f4 [2]
-0.0107480185 0.15107131
00000000: 7518 30bc 70b2 1a3e
